a7e41c3e-3f94-4f3e-85ea-28414a8ba754/model.tflite (tflite, 2280 bytes, 1 tensors)

tfl.pseudo_qconst3 i1 [5, 20] scale=0.0021466247 zero_point=0
00000000: 0000 0000 0000 0000 0000 0000 0000 0000
00000010: 0000 0000 0000 0000 0000 0000 0000 0000
00000020: 0000 0000 0000 0000 0000 0000 0000 0000
00000030: 0000 0000 0000 0000 0000 0000 0000 0000
00000040: 0000 0000 0000 0000 0000 0000 0000 0000
00000050: fa15 0216 e706 19fa ec03 12ff 0882 f681
00000060: 09da f3d9
0.0 0.0 0.0 0.0 0.0 0.0 0.0 0.0
0.0 0.0 0.0 0.0 0.0 0.0 0.0 0.0
0.0 0.0 0.0 0.0 0.0 0.0 0.0 0.0
0.0 0.0 0.0 0.0 0.0 0.0 0.0 0.0
0.0 0.0 0.0 0.0 0.0 0.0 0.0 0.0
0.0 0.0 0.0 0.0 0.0 0.0 0.0 0.0
0.0 0.0 0.0 0.0 0.0 0.0 0.0 0.0
0.0 0.0 0.0 0.0 0.0 0.0 0.0 0.0
0.0 0.0 0.0 0.0 0.0 0.0 0.0 0.0
0.0 0.0 0.0 0.0 0.0 0.0 0.0 0.0
-0.012879748 0.04507912 0.0042932495 0.047225744 -0.05366562 0.012879748 0.05366562 -0.012879748
-0.042932495 0.006439874 0.038639244 -0.0021466247 0.017172998 -0.2704747 -0.021466248 -0.27262133
0.019319622 -0.08157174 -0.027906122 -0.08371837
