9296903f-b7d2-45d0-adb6-29d2ff7f90ad/model.tflite (tflite, 2248 bytes, 1 tensors)

tfl.pseudo_qconst3 i1 [5, 12] scale=0.0031207483 zero_point=0
-0.059294216 0.39009354 0.062414967 0.39633504 0.0 0.08113946 -0.012482993 0.08113946
0.15291667 -0.31207484 -0.14667517 -0.29959184 0.0 0.0 0.0 0.0
0.0 0.0 0.0 0.0 0.0 0.0 0.0 0.0
0.0 0.0 0.0 0.0 0.0 0.0 0.0 0.0
0.0 0.0 0.0 0.0 0.0 0.0 0.0 0.0
0.0 0.0 0.0 0.0 0.0 0.0 0.0 0.0
0.0 0.0 0.0 0.0 0.0 0.0 0.0 0.0
0.0 0.0 0.0 0.0
00000000: ed7d 147f 001a fc1a 319c d1a0 0000 0000
00000010: 0000 0000 0000 0000 0000 0000 0000 0000
00000020: 0000 0000 0000 0000 0000 0000 0000 0000
00000030: 0000 0000 0000 0000 0000 0000
