9296903f-b7d2-45d0-adb6-29d2ff7f90ad/model.tflite (tflite, 2240 bytes, 1 tensors)

tfl.pseudo_qconst3 i1 [5, 12] scale=0.0032474122 zero_point=0
00000000: 0000 0000 0000 0000 0000 0000 0000 0000
00000010: 0000 0000 0000 0000 0000 0000 0000 0000
00000020: 0000 0000 0000 0000 0000 0000 0000 0000
00000030: f07f 167c 0614 0615 33a9 ceaa
0.0 0.0 0.0 0.0 0.0 0.0 0.0 0.0
0.0 0.0 0.0 0.0 0.0 0.0 0.0 0.0
0.0 0.0 0.0 0.0 0.0 0.0 0.0 0.0
0.0 0.0 0.0 0.0 0.0 0.0 0.0 0.0
0.0 0.0 0.0 0.0 0.0 0.0 0.0 0.0
0.0 0.0 0.0 0.0 0.0 0.0 0.0 0.0
-0.051958594 0.41242135 0.071443066 0.40267912 0.019484473 0.064948246 0.019484473 0.068195656
0.16561802 -0.28252485 -0.1623706 -0.27927744
