bf183f6b-b1b3-47c0-845a-29366db65795/model.tflite (tflite, 2304 bytes, 1 tensors)

tfl.pseudo_qconst3 i1 [5, 24] scale=0.0011891394 zero_point=0
0.0 0.0 0.0 0.0 0.0 0.0 0.0 0.0
0.0 0.0 0.0 0.0 0.0 0.0 0.0 0.0
0.0 0.0 0.0 0.0 0.0 0.0 0.0 0.0
-0.035674185 -0.02140451 -0.033295903 0.032106765 -0.015458813 -0.024971928 -0.013080534 0.035674185
0.06659181 -0.026161067 0.053511273 0.02140451 0.0 -0.0095131155 0.0 0.0095131155
0.06540267 -0.026161067 0.06302439 0.028539347 0.010702255 -0.030917626 0.011891395 0.030917626
0.0 0.0 0.0 0.0 0.0 0.0 0.0 0.0
0.0 0.0 0.0 0.0 0.0 0.0 0.0 0.0
0.0 0.0 0.0 0.0 0.0 0.0 0.0 0.0
0.072537504 0.054700416 0.072537504 -0.055889554 0.026161067 0.057078693 0.0392416 -0.06183525
-0.11534653 0.053511273 -0.11653566 -0.033295903 -0.008323976 0.024971928 0.008323976 -0.024971928
-0.1510207 0.032106765 -0.121292226 -0.06778095 -0.035674185 0.06183525 -0.008323976 -0.06540267
0.049943857 0.038052462 0.04875472 -0.038052462 0.017837092 0.0392416 0.026161067 -0.041619882
-0.079672344 0.038052462 -0.08086148 -0.02140451 -0.0059456974 0.016647952 0.0059456974 -0.016647952
-0.10464427 0.02259365 -0.083239764 -0.046376437 -0.024971928 0.04280902 -0.0059456974 -0.0451873
00000000: 0000 0000 0000 0000 0000 0000 0000 0000
00000010: 0000 0000 0000 0000 e2ee e41b f3eb f51e
00000020: 38ea 2d12 00f8 0008 37ea 3518 09e6 0a1a
00000030: 0000 0000 0000 0000 0000 0000 0000 0000
00000040: 0000 0000 0000 0000 3d2e 3dd1 1630 21cc
00000050: 9f2d 9ee4 f915 07eb 811b 9ac7 e234 f9c9
00000060: 2a20 29e0 0f21 16dd bd20 bcee fb0e 05f2
00000070: a813 bad9 eb24 fbda
