3aa740a7-be66-4929-a714-79d368f2827d/model.tflite (tflite, 2672 bytes, 2 tensors)

tfl.pseudo_qconst1 i1 [1, 10] scale=0.20357773 zero_point=0
0.20357773 23.818594 -1.6286218 -2.8500881 -12.825397 -3.2572436 -6.5144873 25.854372
18.525574 24.836483
00000000: 0175 f8f2 c1f0 e07f 5b7a

tfl.pseudo_qconst3 i1 [10, 24] scale=0.0022259173 zero_point=0
0.0 0.0 0.0 0.0 0.0 0.0 0.0 0.0
0.0 0.0 0.0 0.0 0.0 0.0 0.0 0.0
0.0 0.0 0.0 0.0 0.0 0.0 0.0 0.0
0.07568119 0.060099766 0.086810775 0.073455274 0.09571444 -0.031162843 0.09794036 0.011129586
0.07790711 -0.10684403 0.06900343 -0.07122935 -0.028936924 -0.013355504 0.028936924 0.013355504
-0.044518344 0.15804012 -0.0044518346 0.1802993 0.017807338 0.18252522 0.015581422 0.1669438
-0.0044518346 -0.026711008 -0.006677752 -0.031162843 -0.0022259173 -0.0022259173 -0.0022259173 -0.02448509
0.0022259173 0.008903669 0.006677752 -0.017807338 0.0022259173 0.006677752 -0.0022259173 -0.006677752
0.0044518346 -0.0022259173 0.008903669 -0.0022259173 0.020033255 0.017807338 0.020033255 0.037840594
-0.0044518346 -0.055647932 -0.008903669 -0.062325686 -0.0044518346 -0.011129586 -0.0022259173 -0.044518344
0.0022259173 0.011129586 0.006677752 -0.026711008 0.008903669 0.006677752 -0.008903669 -0.006677752
0.008903669 -0.0022259173 0.022259172 -0.0044518346 0.037840594 0.020033255 0.03338876 0.055647932
-0.031162843 -0.06900343 -0.020033255 -0.053422015 -0.044518344 -0.044518344 -0.022259172 -0.017807338
-0.055647932 -0.02448509 -0.02448509 -0.0044518346 0.011129586 0.006677752 -0.011129586 -0.006677752
-0.05787385 -0.044518344 -0.07122935 -0.04006651 -0.1535883 -0.013355504 -0.16249196 -0.017807338
-0.008903669 -0.062325686 -0.008903669 -0.06900343 -0.008903669 -0.013355504 0.0044518346 -0.0511961
-0.0044518346 0.011129586 0.013355504 -0.03338876 0.008903669 0.006677752 -0.008903669 -0.006677752
0.008903669 -0.008903669 0.026711008 -0.008903669 0.035614677 0.022259172 0.037840594 0.055647932
0.02448509 -0.084584855 -0.015581422 -0.09571444 0.031162843 -0.0044518346 -0.026711008 -0.055647932
0.04897018 0.015581422 -0.011129586 -0.013355504 0.02448509 0.0022259173 -0.02448509 -0.0022259173
-0.006677752 0.020033255 0.02448509 -0.020033255 0.044518344 -0.013355504 0.022259172 0.07122935
-0.031162843 0.18252522 -0.017807338 0.17584747 -0.060099766 0.13578096 -0.037840594 0.100166276
-0.08013302 0.14023279 -0.06677752 0.10906995 -0.026711008 0.028936924 0.026711008 -0.028936924
0.028936924 0.0645516 -0.12242545 0.053422015 -0.017807338 0.16026604 -0.0044518346 0.15581422
-0.06677752 0.2181399 -0.07122935 0.23594724 -0.0645516 0.08013302 -0.062325686 0.16026604
-0.0511961 0.07568119 -0.006677752 0.1268773 -0.017807338 0.015581422 0.017807338 -0.015581422
0.09126261 -0.10684403 -0.09126261 -0.04006651 0.0022259173 -0.084584855 -0.013355504 -0.2826915
0.06677752 0.073455274 0.07790711 0.084584855 0.08903669 -0.013355504 0.084584855 0.026711008
0.07122935 -0.08235894 0.053422015 -0.04006651 -0.026711008 -0.008903669 0.026711008 0.008903669
-0.0511961 0.13800687 0.017807338 0.16471788 0.0044518346 0.18475114 0.013355504 0.17807338
00000000: 0000 0000 0000 0000 0000 0000 0000 0000
00000010: 0000 0000 0000 0000 221b 2721 2bf2 2c05
00000020: 23d0 1fe0 f3fa 0d06 ec47 fe51 0852 074b
00000030: fef4 fdf2 ffff fff5 0104 03f8 0103 fffd
00000040: 02ff 04ff 0908 0911 fee7 fce4 fefb ffec
00000050: 0105 03f4 0403 fcfd 04ff 0afe 1109 0f19
00000060: f2e1 f7e8 ecec f6f8 e7f5 f5fe 0503 fbfd
00000070: e6ec e0ee bbfa b7f8 fce4 fce1 fcfa 02e9
00000080: fe05 06f1 0403 fcfd 04fc 0cfc 100a 1119
00000090: 0bda f9d5 0efe f4e7 1607 fbfa 0b01 f5ff
000000a0: fd09 0bf7 14fa 0a20 f252 f84f e53d ef2d
000000b0: dc3f e231 f40d 0cf3 0d1d c918 f848 fe46
000000c0: e262 e06a e324 e448 e922 fd39 f807 08f9
000000d0: 29d0 d7ee 01da fa81 1e21 2326 28fa 260c
000000e0: 20db 18ee f4fc 0c04 e93e 084a 0253 0650
