470b7f66-bead-4cef-9f62-945a9ef9378d/model.tflite (tflite, 2608 bytes, 2 tensors)

tfl.pseudo_qconst1 i1 [1, 10] scale=0.4619605 zero_point=0
0	0x7b	56.82114
1	0xe0	-14.782736
2	0xe0	-14.782736
3	0xe6	-12.010973
4	0xd4	-20.326262
5	0xe2	-13.858815
6	0xd3	-20.788221
7	0x00	0.0
8	0x7f	58.668983
9	0xbe	-30.489393

tfl.pseudo_qconst3 i1 [10, 16] scale=0.0019440817 zero_point=0
0	0xf7	-0.017496735
1	0xa0	-0.18663184
2	0xe7	-0.048602045
3	0x81	-0.24689838
4	0x04	0.007776327
5	0xfb	-0.009720408
6	0xfc	-0.007776327
7	0x05	0.009720408
8	0xf5	-0.021384899
9	0x60	0.18663184
10	0x0f	0.029161226
11	0x4f	0.15358245
12	0xd9	-0.07581919
13	0x2b	0.083595514
14	0x13	0.036937553
15	0x18	0.04665796
16	0xf9	-0.013608572
17	0xff	-0.0019440817
18	0xe7	-0.048602045
19	0xfb	-0.009720408
20	0xfc	-0.007776327
21	0x04	0.007776327
22	0x04	0.007776327
23	0xfc	-0.007776327
24	0xc2	-0.12053307
25	0xd9	-0.07581919
26	0x06	0.01166449
27	0xd7	-0.079707354
28	0xf2	-0.027217144
29	0xf7	-0.017496735
30	0xfc	-0.007776327
31	0x02	0.0038881635
32	0xf8	-0.015552654
33	0xfd	-0.005832245
34	0xe7	-0.048602045
35	0xfb	-0.009720408
36	0xfd	-0.005832245
37	0x04	0.007776327
38	0x03	0.005832245
39	0xfc	-0.007776327
40	0xc0	-0.12442123
41	0xd7	-0.079707354
42	0x04	0.007776327
43	0xd3	-0.08748368
44	0xee	-0.03499347
45	0x00	0.0
46	0xf9	-0.013608572
47	0xfd	-0.005832245
48	0xf8	-0.015552654
49	0xf8	-0.015552654
50	0xe9	-0.04471388
51	0xf6	-0.019440817
52	0xfd	-0.005832245
53	0x02	0.0038881635
54	0x03	0.005832245
55	0xfe	-0.0038881635
56	0xcb	-0.10303633
57	0xdb	-0.07193103
58	0x00	0.0
59	0xd8	-0.07776327
60	0xf1	-0.029161226
61	0xff	-0.0019440817
62	0xf9	-0.013608572
63	0xfd	-0.005832245
64	0xf5	-0.021384899
65	0x03	0.005832245
66	0xe0	-0.062210616
67	0x01	0.0019440817
68	0xfb	-0.009720408
69	0x05	0.009720408
70	0x05	0.009720408
71	0xfb	-0.009720408
72	0xb1	-0.15358245
73	0xd0	-0.09331592
74	0x0c	0.02332898
75	0xcc	-0.10109225
76	0xef	-0.03304939
77	0xf9	-0.013608572
78	0xfc	-0.007776327
79	0x00	0.0
80	0xf8	-0.015552654
81	0xfb	-0.009720408
82	0xe8	-0.04665796
83	0xf9	-0.013608572
84	0xfc	-0.007776327
85	0x04	0.007776327
86	0x04	0.007776327
87	0xfc	-0.007776327
88	0xc4	-0.116644904
89	0xd9	-0.07581919
90	0x02	0.0038881635
91	0xd5	-0.083595514
92	0xef	-0.03304939
93	0xfe	-0.0038881635
94	0xf8	-0.015552654
95	0xfc	-0.007776327
96	0xfa	-0.01166449
97	0x03	0.005832245
98	0xe5	-0.05249021
99	0xff	-0.0019440817
100	0xfd	-0.005832245
101	0x06	0.01166449
102	0x03	0.005832245
103	0xfa	-0.01166449
104	0xae	-0.15941471
105	0xcd	-0.09914817
106	0x12	0.03499347
107	0xcc	-0.10109225
108	0xed	-0.036937553
109	0xf4	-0.02332898
110	0xfe	-0.0038881635
111	0x03	0.005832245
112	0x00	0.0
113	0x00	0.0
114	0x00	0.0
115	0x00	0.0
116	0x00	0.0
117	0x00	0.0
118	0x00	0.0
119	0x00	0.0
120	0x00	0.0
121	0x00	0.0
122	0x00	0.0
123	0x00	0.0
124	0x00	0.0
125	0x00	0.0
126	0x00	0.0
127	0x00	0.0
128	0xb9	-0.1380298
129	0xb9	-0.1380298
130	0x93	-0.21190491
131	0xb6	-0.14386205
132	0x11	0.03304939
133	0xf7	-0.017496735
134	0xef	-0.03304939
135	0x09	0.017496735
136	0xea	-0.042769797
137	0x27	0.07581919
138	0xef	-0.03304939
139	0x14	0.038881633
140	0x84	-0.24106614
141	0x1c	0.05443429
142	0xbe	-0.1283094
143	0x22	0.06609878
144	0xfc	-0.007776327
145	0x04	0.007776327
146	0xdd	-0.06804286
147	0x04	0.007776327
148	0xfc	-0.007776327
149	0x09	0.017496735
150	0x04	0.007776327
151	0xf7	-0.017496735
152	0x9d	-0.1924641
153	0xb9	-0.1380298
154	0x12	0.03499347
155	0xb7	-0.14191797
156	0xf2	-0.027217144
157	0xf3	-0.025273062
158	0xfd	-0.005832245
159	0x00	0.0
