79f59b24-44ca-4bbc-ae1c-89ea8adaf879/model.tflite (tflite, 2272 bytes, 1 tensors)

tfl.pseudo_qconst3 i1 [5, 16] scale=0.0016940037 zero_point=0
00000000: 0000 0000 0000 0000 0000 0000 0000 0000
00000010: fcfd 0403 f3aa 11bd 1392 e6a2 4491 b589
00000020: 0000 0000 0000 0000 0000 0000 0000 0000
00000030: 0000 0000 0000 0000 0000 0000 0000 0000
00000040: 0602 fbfe 125a f44b f073 1268 c376 417f
0.0 0.0 0.0 0.0 0.0 0.0 0.0 0.0
0.0 0.0 0.0 0.0 0.0 0.0 0.0 0.0
-0.006776015 -0.005082011 0.006776015 0.005082011 -0.022022048 -0.14568432 0.028798062 -0.11349825
0.03218607 -0.1863404 -0.044044096 -0.15923634 0.11519225 -0.18803442 -0.12705028 -0.20158644
0.0 0.0 0.0 0.0 0.0 0.0 0.0 0.0
0.0 0.0 0.0 0.0 0.0 0.0 0.0 0.0
0.0 0.0 0.0 0.0 0.0 0.0 0.0 0.0
0.0 0.0 0.0 0.0 0.0 0.0 0.0 0.0
0.010164022 0.0033880074 -0.008470018 -0.0033880074 0.030492067 0.15246034 -0.020328045 0.12705028
-0.02710406 0.19481042 0.030492067 0.17617638 -0.103334226 0.19989243 0.11011024 0.21513847
