6a365e26-9640-41b1-b22c-32b384216bff/model.tflite (tflite, 2264 bytes, 1 tensors)

tfl.pseudo_qconst3 i1 [5, 16] scale=0.0018288825 zero_point=0
00000000: 02d1 ded3 54c7 4b11 0b09 f5f7 d0d8 bb30
00000010: 0000 0000 0000 0000 0000 0000 0000 0000
00000020: 03dd d1cb 56d9 671a 0f1f f1e1 becd af57
00000030: 0000 0000 0000 0000 0000 0000 0000 0000
00000040: 05ba d3b7 3c27 f781 09ef f711 dbfc 2221
0.003657765 -0.085957475 -0.062182005 -0.08229971 0.15362613 -0.1042463 0.13716619 0.031091003
0.020117708 0.016459942 -0.020117708 -0.016459942 -0.08778636 -0.0731553 -0.1261929 0.08778636
0.0 0.0 0.0 0.0 0.0 0.0 0.0 0.0
0.0 0.0 0.0 0.0 0.0 0.0 0.0 0.0
0.0054866476 -0.06401089 -0.085957475 -0.09693077 0.15728389 -0.07132642 0.18837489 0.047550946
0.027433237 0.056695357 -0.027433237 -0.056695357 -0.120706245 -0.09327301 -0.14813948 0.15911278
0.0 0.0 0.0 0.0 0.0 0.0 0.0 0.0
0.0 0.0 0.0 0.0 0.0 0.0 0.0 0.0
0.009144412 -0.12802178 -0.08229971 -0.13350843 0.10973295 0.07132642 -0.016459942 -0.23226808
0.016459942 -0.031091003 -0.016459942 0.031091003 -0.067668654 -0.00731553 0.062182005 0.060353123
