f225b7a9-dd34-4315-9876-fdb9d59f75df/model.tflite (tflite, 2248 bytes, 1 tensors)

tfl.pseudo_qconst3 i1 [5, 12] scale=0.0022623173 zero_point=0
000000 00 00 00 00 00 00 00 00 00 00 00 00 00 00 00 00
       0.0 0.0 0.0 0.0 0.0 0.0 0.0 0.0 0.0 0.0 0.0 0.0 0.0 0.0 0.0 0.0
000010 00 00 00 00 00 00 00 00 00 00 00 00 00 00 00 00
       0.0 0.0 0.0 0.0 0.0 0.0 0.0 0.0 0.0 0.0 0.0 0.0 0.0 0.0 0.0 0.0
000020 00 00 00 00 0f fe f1 02 f2 c2 0b c1 39 81 c6 84
       0.0 0.0 0.0 0.0 0.03393476 -0.0045246347 -0.03393476 0.0045246347 -0.031672444 -0.14026368 0.02488549 -0.14252599 0.12895209 -0.2873143 -0.13121441 -0.28052735
000030 00 00 00 00 00 00 00 00 00 00 00 00
       0.0 0.0 0.0 0.0 0.0 0.0 0.0 0.0 0.0 0.0 0.0 0.0
