cdd0feae-9f27-4884-82ef-3428076916a2/model.tflite (tflite, 2608 bytes, 2 tensors)

tfl.pseudo_qconst1 i1 [1, 10] scale=0.10832551 zero_point=0
000000 d9 c3 ca f0 7f d0 f6 6d c7 e3
       -4.2246947 -6.6078563 -5.8495774 -1.7332082 13.7573395 -5.1996245 -1.083255 11.807481 -6.1745543 -3.14144

tfl.pseudo_qconst3 i1 [10, 16] scale=0.0028346786 zero_point=0
000000 26 d9 d7 d7 15 02 eb fe 15 26 f2 19 06 e8 fd e7
       0.10771779 -0.11055247 -0.11622182 -0.11622182 0.05952825 0.0056693573 -0.05952825 -0.0056693573 0.05952825 0.10771779 -0.039685503 0.070866965 0.017008072 -0.06803229 -0.008504036 -0.070866965
000010 3b c7 c5 c4 1e 03 e2 fd 1e 38 ed 27 02 da f5 da
       0.16724604 -0.16157669 -0.16724604 -0.17008072 0.08504036 0.008504036 -0.08504036 -0.008504036 0.08504036 0.15874201 -0.053858895 0.11055247 0.0056693573 -0.10771779 -0.031181466 -0.10771779
000020 34 cc c9 c9 1b 03 e5 fd 1c 33 ee 24 06 df f9 df
       0.14740328 -0.14740328 -0.15590732 -0.15590732 0.07653632 0.008504036 -0.07653632 -0.008504036 0.079371005 0.1445686 -0.051024213 0.10204843 0.017008072 -0.093544394 -0.019842751 -0.093544394
000030 12 f2 f0 f1 09 ff f7 01 09 10 fc 09 02 f3 00 f2
       0.051024213 -0.039685503 -0.045354858 -0.04252018 0.025512107 -0.0028346786 -0.025512107 0.0028346786 0.025512107 0.045354858 -0.0113387145 0.025512107 0.0056693573 -0.03685082 0.0 -0.039685503
000040 a0 73 78 78 cc fe 34 02 cf 8d 24 aa fb 3d 0a 3c
       -0.27212915 0.32598805 0.34016144 0.34016144 -0.14740328 -0.0056693573 0.14740328 0.0056693573 -0.13889925 -0.32598805 0.10204843 -0.24378236 -0.014173393 0.1729154 0.028346786 0.17008072
000050 2d d3 ce d1 18 03 e8 fd 18 2c f0 1d 05 e1 fa e0
       0.12756054 -0.12756054 -0.14173393 -0.1332299 0.06803229 0.008504036 -0.06803229 -0.008504036 0.06803229 0.12472586 -0.045354858 0.08220568 0.014173393 -0.08787504 -0.017008072 -0.090709716
000060 0e f8 f8 f7 05 ff fb 01 06 0b fe 05 ff f8 ff f6
       0.039685503 -0.022677429 -0.022677429 -0.025512107 0.014173393 -0.0028346786 -0.014173393 0.0028346786 0.017008072 0.031181466 -0.0056693573 0.014173393 -0.0028346786 -0.022677429 -0.0028346786 -0.028346786
000070 81 23 13 34 dc fb 24 05 f6 9c 23 bf 48 39 4c 3b
       -0.3600042 0.09921375 0.053858895 0.14740328 -0.10204843 -0.014173393 0.10204843 0.014173393 -0.028346786 -0.28346786 0.09921375 -0.18425411 0.20409685 0.16157669 0.21543558 0.16724604
000080 35 cc c7 ca 1b 04 e5 fc 19 35 ec 25 02 dc f6 dc
       0.15023796 -0.14740328 -0.16157669 -0.15307264 0.07653632 0.0113387145 -0.07653632 -0.0113387145 0.070866965 0.15023796 -0.056693573 0.10488311 0.0056693573 -0.10204843 -0.028346786 -0.10204843
000090 1d e4 e2 e2 10 00 f0 00 10 1c f7 11 04 ec fd eb
       0.08220568 -0.079371005 -0.08504036 -0.08504036 0.045354858 0.0 -0.045354858 0.0 0.045354858 0.079371005 -0.025512107 0.048189536 0.0113387145 -0.056693573 -0.008504036 -0.05952825
