9005f7c7-aa4c-4b6f-b98f-f17bb0091119/model.tflite (tflite, 2608 bytes, 2 tensors)

tfl.pseudo_qconst1 i1 [1, 10] scale=0.44865268 zero_point=0
000000 fc fc f4 7f 75 ff f5 60 77 01
       -1.7946107 -1.7946107 -5.383832 56.97889 52.492363 -0.44865268 -4.9351797 43.070656 53.38967 0.44865268

tfl.pseudo_qconst3 i1 [10, 16] scale=0.0012537596 zero_point=0
000000 fe 04 fe 04 01 03 ff 01 ff 01 01 ff fc fe fb fe
       -0.0025075192 0.0050150384 -0.0025075192 0.0050150384 0.0012537596 0.003761279 -0.0012537596 0.0012537596 -0.0012537596 0.0012537596 0.0012537596 -0.0012537596 -0.0050150384 -0.0025075192 -0.006268798 -0.0025075192
000010 fe 05 ff 04 01 03 ff 01 fe 01 02 ff fb fc fa fc
       -0.0025075192 0.006268798 -0.0012537596 0.0050150384 0.0012537596 0.003761279 -0.0012537596 0.0012537596 -0.0025075192 0.0012537596 0.0025075192 -0.0012537596 -0.006268798 -0.0050150384 -0.007522558 -0.0050150384
000020 fa 0e ff 0b fe 06 04 02 fa 01 06 ff f1 f4 f9 f5
       -0.007522558 0.017552635 -0.0012537596 0.013791355 -0.0025075192 0.007522558 0.0050150384 0.0025075192 -0.007522558 0.0012537596 0.007522558 -0.0012537596 -0.018806394 -0.015045116 -0.008776317 -0.013791355
000030 0b c8 08 dd fe c9 f3 fb 01 f1 ff 0f 28 7f 1c 5b
       0.013791355 -0.07021054 0.010030077 -0.043881588 -0.0025075192 -0.06895678 -0.016298875 -0.006268798 0.0012537596 -0.018806394 -0.0012537596 0.018806394 0.050150383 0.15922748 0.03510527 0.11409213
000040 11 be 05 d1 09 c5 ea f7 0f f6 f1 0a 2a 70 0e 52
       0.021313913 -0.08274814 0.006268798 -0.0589267 0.011283836 -0.073971815 -0.02758271 -0.011283836 0.018806394 -0.012537596 -0.018806394 0.012537596 0.052657902 0.14042108 0.017552635 0.10280829
000050 00 00 00 00 00 00 00 00 00 00 00 00 00 00 00 00
       0.0 0.0 0.0 0.0 0.0 0.0 0.0 0.0 0.0 0.0 0.0 0.0 0.0 0.0 0.0 0.0
000060 f8 0d fd 0a fe 04 03 02 fb 01 05 ff f3 f6 f9 f6
       -0.010030077 0.016298875 -0.003761279 0.012537596 -0.0025075192 0.0050150384 0.003761279 0.0025075192 -0.006268798 0.0012537596 0.006268798 -0.0012537596 -0.016298875 -0.012537596 -0.008776317 -0.012537596
000070 11 cf 08 dc 09 e4 f8 f5 04 f2 fc 0e 23 6e 15 59
       0.021313913 -0.06143422 0.010030077 -0.045135345 0.011283836 -0.03510527 -0.010030077 -0.013791355 0.0050150384 -0.017552635 -0.0050150384 0.017552635 0.043881588 0.13791355 0.026328951 0.111584604
000080 11 bc 00 d2 11 bf ed f3 0f f6 f1 0a 24 74 03 53
       0.021313913 -0.08525565 0.0 -0.05767294 0.021313913 -0.081494376 -0.023821432 -0.016298875 0.018806394 -0.012537596 -0.018806394 0.012537596 0.045135345 0.14543611 0.003761279 0.10406205
000090 00 00 00 00 00 00 00 00 00 00 00 00 00 00 00 00
       0.0 0.0 0.0 0.0 0.0 0.0 0.0 0.0 0.0 0.0 0.0 0.0 0.0 0.0 0.0 0.0
