d2cbc89d-4313-4e90-af1d-2fc8dd2eb91b/model.tflite (tflite, 2256 bytes, 1 tensors)

tfl.pseudo_qconst3 i1 [5, 12] scale=0.0006763275 zero_point=0
000000 f7 38 09 c8 5e 30 60 e7 84 d9 81 0b fc 1b 04 e5
       -0.0060869474 0.03787434 0.0060869474 -0.03787434 0.06357478 0.032463722 0.064927444 -0.016908187 -0.08386461 -0.026376773 -0.085893594 0.0074396026 -0.00270531 0.018260842 0.00270531 -0.018260842
000010 42 29 30 fd cc fa be 10 00 00 00 00 00 00 00 00
       0.044637617 0.027729427 0.032463722 -0.0020289826 -0.03516903 -0.0040579652 -0.044637617 0.01082124 0.0 0.0 0.0 0.0 0.0 0.0 0.0 0.0
000020 00 00 00 00 01 29 ff d7 5b 31 4a ee 9c da 8c 0c
       0.0 0.0 0.0 0.0 0.0006763275 0.027729427 -0.0006763275 -0.027729427 0.061545804 0.03314005 0.050048236 -0.012173895 -0.06763275 -0.025700444 -0.07845399 0.0081159305
000030 00 00 00 00 00 00 00 00 00 00 00 00
       0.0 0.0 0.0 0.0 0.0 0.0 0.0 0.0 0.0 0.0 0.0 0.0
