32869867-cd42-4126-a519-2aac1c296471/model.tflite (tflite, 2312 bytes, 1 tensors)

tfl.pseudo_qconst3 i1 [5, 24] scale=0.0013809908 zero_point=0
0	0x00	0.0
1	0x00	0.0
2	0x00	0.0
3	0x00	0.0
4	0x00	0.0
5	0x00	0.0
6	0x00	0.0
7	0x00	0.0
8	0x00	0.0
9	0x00	0.0
10	0x00	0.0
11	0x00	0.0
12	0x00	0.0
13	0x00	0.0
14	0x00	0.0
15	0x00	0.0
16	0x00	0.0
17	0x00	0.0
18	0x00	0.0
19	0x00	0.0
20	0x00	0.0
21	0x00	0.0
22	0x00	0.0
23	0x00	0.0
24	0x52	0.11324125
25	0x3f	0.08700243
26	0x4e	0.10771728
27	0x46	0.09666936
28	0xfd	-0.0041429726
29	0xf7	-0.012428918
30	0x0b	0.015190899
31	0x12	0.024857836
32	0xfb	-0.006904954
33	0xfc	-0.0055239634
34	0xc3	-0.084240444
35	0xf8	-0.011047927
36	0x01	0.0013809908
37	0xfc	-0.0055239634
38	0xff	-0.0013809908
39	0x04	0.0055239634
40	0x03	0.0041429726
41	0x07	0.009666936
42	0x01	0.0013809908
43	0x04	0.0055239634
44	0xee	-0.024857836
45	0xf3	-0.017952882
46	0xf6	-0.013809908
47	0xf6	-0.013809908
48	0x81	-0.17538583
49	0x67	0.14224206
50	0x85	-0.16986187
51	0x5b	0.12567016
52	0xe6	-0.035905764
53	0x12	0.024857836
54	0x07	0.009666936
55	0xee	-0.024857836
56	0x47	0.09805035
57	0xf3	-0.017952882
58	0x1b	0.03728675
59	0xed	-0.026238825
60	0x03	0.0041429726
61	0x02	0.0027619817
62	0xfd	-0.0041429726
63	0xfe	-0.0027619817
64	0x06	0.008285945
65	0x01	0.0013809908
66	0xf9	-0.009666936
67	0x04	0.0055239634
68	0x0d	0.017952882
69	0xfa	-0.008285945
70	0x08	0.011047927
71	0xfd	-0.0041429726
72	0x3e	0.08562143
73	0x45	0.095288366
74	0x4e	0.10771728
75	0x47	0.09805035
76	0xe5	-0.03728675
77	0xe6	-0.035905764
78	0x1f	0.042810716
79	0xf8	-0.011047927
80	0xea	-0.030381799
81	0xd1	-0.06490657
82	0xdb	-0.051096663
83	0xcb	-0.073192514
84	0x03	0.0041429726
85	0xfc	-0.0055239634
86	0xfd	-0.0041429726
87	0x04	0.0055239634
88	0x07	0.009666936
89	0x28	0.055239633
90	0x06	0.008285945
91	0x22	0.04695369
92	0x05	0.006904954
93	0x24	0.04971567
94	0xf0	-0.022095853
95	0x29	0.056620624
96	0xde	-0.04695369
97	0x1b	0.03728675
98	0xe0	-0.044191707
99	0x18	0.03314378
100	0xf9	-0.009666936
101	0x05	0.006904954
102	0x03	0.0041429726
103	0xfb	-0.006904954
104	0x13	0.026238825
105	0xfe	-0.0027619817
106	0x07	0.009666936
107	0xfc	-0.0055239634
108	0xff	-0.0013809908
109	0x02	0.0027619817
110	0x01	0.0013809908
111	0xfe	-0.0027619817
112	0x02	0.0027619817
113	0x00	0.0
114	0xfe	-0.0027619817
115	0x00	0.0
116	0x04	0.0055239634
117	0xfd	-0.0041429726
118	0x03	0.0041429726
119	0xfd	-0.0041429726
