cfa1ba90-79f9-4580-bea3-7757832a9773/model.tflite (tflite, 2304 bytes, 1 tensors)

tfl.pseudo_qconst3 i1 [5, 24] scale=0.0017774295 zero_point=0
00000000: 010a 010a 0d4d f44e 187d e97f 07ff f900
00000010: 0702 fb03 1114 f014 fdfb 04fb f8d6 07d5
00000020: f3bb 0cba f900 0800 f9fd 08fd f3f9 0bf5
00000030: fdff 02ff f3d8 0bd7 ebbc 13ba fa00 06ff
00000040: fafa 06fa f4ed 0ced 04fa fcfb 00ea 00ea
00000050: fbde 03dd 0100 0100 0203 ff03 fefd 02fd
00000060: 0108 ff08 0d49 f349 1877 e977 0800 f801
00000070: 0704 f904 1214 ee14
0.0017774295 0.017774295 0.0017774295 0.017774295 0.023106582 0.13686207 -0.021329153 0.1386395
0.042658307 0.22217868 -0.040880878 0.22573355 0.012442007 -0.0017774295 -0.012442007 0.0
0.012442007 0.003554859 -0.0088871475 0.0053322883 0.0302163 0.03554859 -0.028438872 0.03554859
-0.0053322883 -0.0088871475 0.007109718 -0.0088871475 -0.014219436 -0.07465204 0.012442007 -0.07642947
-0.023106582 -0.12264264 0.021329153 -0.12442006 -0.012442007 0.0 0.014219436 0.0
-0.012442007 -0.0053322883 0.014219436 -0.0053322883 -0.023106582 -0.012442007 0.019551724 -0.019551724
-0.0053322883 -0.0017774295 0.003554859 -0.0017774295 -0.023106582 -0.07109718 0.019551724 -0.072874606
-0.03732602 -0.1208652 0.03377116 -0.12442006 -0.010664577 0.0 0.010664577 -0.0017774295
-0.010664577 -0.010664577 0.010664577 -0.010664577 -0.021329153 -0.03377116 0.021329153 -0.03377116
0.007109718 -0.010664577 -0.007109718 -0.0088871475 0.0 -0.03910345 0.0 -0.03910345
-0.0088871475 -0.0604326 0.0053322883 -0.06221003 0.0017774295 0.0 0.0017774295 0.0
0.003554859 0.0053322883 -0.0017774295 0.0053322883 -0.003554859 -0.0053322883 0.003554859 -0.0053322883
0.0017774295 0.014219436 -0.0017774295 0.014219436 0.023106582 0.12975235 -0.023106582 0.12975235
0.042658307 0.21151412 -0.040880878 0.21151412 0.014219436 0.0 -0.014219436 0.0017774295
0.012442007 0.007109718 -0.012442007 0.007109718 0.03199373 0.03554859 -0.03199373 0.03554859
