f00826e9-c2cb-4655-98c3-3a413175ca92/model.tflite (tflite, 2312 bytes, 1 tensors)

tfl.pseudo_qconst3 i1 [5, 24] scale=0.00038374244 zero_point=0
-0.004221167 -0.0038374243 0.003453682 0.006139879 -0.0046049096 -0.035688046 0.0049886517 -0.02993191
-0.0026861972 -0.045281608 0.00038374244 -0.042979155 0.0023024548 -0.0030699396 -0.0023024548 0.0030699396
0.0007674849 -0.029548168 0.0007674849 -0.028780684 -0.0007674849 -0.044897866 0.0026861972 -0.042979155
0.0007674849 -0.0057561365 0.0057561365 0.00038374244 -0.0038374243 -0.03185062 0.00038374244 -0.03261811
0.00038374244 -0.040676698 -0.00038374244 -0.03914173 0.0019187122 0.0 -0.0019187122 0.0
-0.004221167 -0.027245713 -0.004221167 -0.026094487 -0.0053723943 -0.04221167 -0.0023024548 -0.040292956
0.0 0.0 0.0 0.0 0.0 0.0 0.0 0.0
0.0 0.0 0.0 0.0 0.0 0.0 0.0 0.0
0.0 0.0 0.0 0.0 0.0 0.0 0.0 0.0
-0.0030699396 0.0026861972 0.0026861972 0.004221167 -0.004221167 -0.036839277 0.0023024548 -0.03645553
-0.0007674849 -0.046049092 0.0 -0.046049092 0.004221167 -0.0007674849 -0.004221167 0.0007674849
-0.0007674849 -0.03300185 -0.0007674849 -0.03261811 -0.0011512274 -0.04873529 0.0011512274 -0.047200322
-0.0023024548 0.0 0.0038374243 0.008442334 -0.0038374243 -0.03607179 0.0011512274 -0.031083139
-0.00038374244 -0.046049092 0.0 -0.044514123 0.0011512274 -0.0026861972 -0.0011512274 0.0026861972
-0.0011512274 -0.03146688 -0.0015349698 -0.030315652 -0.0026861972 -0.046049092 0.0011512274 -0.044514123
00000000: f5f6 0910 f4a3 0db2 f98a 0190 06f8 fa08
00000010: 02b3 02b5 fe8b 0790 02f1 0f01 f6ad 01ab
00000020: 0196 ff9a 0500 fb00 f5b9 f5bc f292 fa97
00000030: 0000 0000 0000 0000 0000 0000 0000 0000
00000040: 0000 0000 0000 0000 f807 070b f5a0 06a1
00000050: fe88 0088 0bfe f502 feaa feab fd81 0385
00000060: fa00 0a16 f6a2 03af ff88 008c 03f9 fd07
00000070: fdae fcb1 f988 038c
