9a888d2b-6e6a-4c08-9c0a-1cee57ade9dd/model.tflite (tflite, 2256 bytes, 1 tensors)

tfl.pseudo_qconst3 i1 [5, 12] scale=0.00083345955 zero_point=0
0.00083345955 0.0033338382 -0.0016669191 -0.0025003785 -0.008334596 -0.029171085 -0.030004544 -0.06500985
-0.05834217 0.029171085 -0.022503408 -0.066676766 -0.00083345955 -0.004167298 0.0 0.004167298
0.02083649 0.046673734 0.032504924 0.10584936 0.08751325 -0.049174115 0.019169569 0.09084709
0.0 0.0 0.0 0.0 0.0 0.0 0.0 0.0
0.0 0.0 0.0 0.0 0.0 0.0 0.0 0.0
0.0 0.0 0.0 0.0 0.0 0.0 0.0 0.0
0.00083345955 0.00083345955 -0.00083345955 -0.0033338382 -0.0058342167 -0.038339138 -0.031671464 -0.077511735
-0.049174115 0.026670706 -0.019169569 -0.06417639
00000000: 0104 fefd f6dd dcb2 ba23 e5b0 fffb 0005
00000010: 1938 277f 69c5 176d 0000 0000 0000 0000
00000020: 0000 0000 0000 0000 0000 0000 0000 0000
00000030: 0101 fffc f9d2 daa3 c520 e9b3
