902faf15-0867-41b8-a530-40c1bbbed7b4/model.tflite (tflite, 2288 bytes, 1 tensors)

tfl.pseudo_qconst3 i1 [5, 20] scale=0.0010956636 zero_point=0
0	0x01	0.0010956636
1	0x86	-0.13367097
2	0xf8	-0.008765309
3	0x81	-0.13914928
4	0x04	0.0043826546
5	0xb0	-0.08765309
6	0x02	0.0021913273
7	0xaf	-0.08874875
8	0xe6	-0.028487254
9	0xdf	-0.0361569
10	0x21	0.0361569
11	0xe0	-0.035061236
12	0x09	0.009860973
13	0x06	0.0065739816
14	0xf7	-0.009860973
15	0xfa	-0.0065739816
16	0x09	0.009860973
17	0x00	0.0
18	0x03	0.0032869908
19	0xfd	-0.0032869908
20	0x03	0.0032869908
21	0x96	-0.11614034
22	0x00	0.0
23	0x92	-0.120523
24	0x02	0.0021913273
25	0xc2	-0.067931145
26	0x05	0.0054783183
27	0xc0	-0.07012247
28	0xe1	-0.033965573
29	0xe6	-0.028487254
30	0x18	0.026295926
31	0xe7	-0.02739159
32	0x03	0.0032869908
33	0x0b	0.0120523
34	0xfd	-0.0032869908
35	0xf5	-0.0120523
36	0xfd	-0.0032869908
37	0x03	0.0032869908
38	0x01	0.0010956636
39	0x01	0.0010956636
40	0x00	0.0
41	0x00	0.0
42	0x00	0.0
43	0x00	0.0
44	0x00	0.0
45	0x00	0.0
46	0x00	0.0
47	0x00	0.0
48	0x00	0.0
49	0x00	0.0
50	0x00	0.0
51	0x00	0.0
52	0x00	0.0
53	0x00	0.0
54	0x00	0.0
55	0x00	0.0
56	0x00	0.0
57	0x00	0.0
58	0x00	0.0
59	0x00	0.0
60	0x00	0.0
61	0x00	0.0
62	0x00	0.0
63	0x00	0.0
64	0x00	0.0
65	0x00	0.0
66	0x00	0.0
67	0x00	0.0
68	0x00	0.0
69	0x00	0.0
70	0x00	0.0
71	0x00	0.0
72	0x00	0.0
73	0x00	0.0
74	0x00	0.0
75	0x00	0.0
76	0x00	0.0
77	0x00	0.0
78	0x00	0.0
79	0x00	0.0
80	0x00	0.0
81	0x00	0.0
82	0x00	0.0
83	0x00	0.0
84	0x00	0.0
85	0x00	0.0
86	0x00	0.0
87	0x00	0.0
88	0x00	0.0
89	0x00	0.0
90	0x00	0.0
91	0x00	0.0
92	0x00	0.0
93	0x00	0.0
94	0x00	0.0
95	0x00	0.0
96	0x00	0.0
97	0x00	0.0
98	0x00	0.0
99	0x00	0.0
