a5fdc617-fe6d-4821-87c7-ce01bc2c9294/model.tflite (tflite, 2312 bytes, 1 tensors)

tfl.pseudo_qconst3 i1 [5, 24] scale=0.00062573573 zero_point=0
0.026906636 0.012514714 0.016269129 0.0031286785 0.03942135 0.0018772072 0.035666935 -0.0056316215
0.062573574 -0.016269129 0.057567686 -0.025655165 0.0 0.0 0.0 0.0
0.0037544144 -0.015017658 -0.012514714 -0.016894864 -0.011263243 0.019397808 -0.024403693 0.013766186
0.0 0.0 0.0 0.0 0.0 0.0 0.0 0.0
0.0 0.0 0.0 0.0 0.0 0.0 0.0 0.0
0.0 0.0 0.0 0.0 0.0 0.0 0.0 0.0
0.0 0.0 0.0 0.0 0.0 0.0 0.0 0.0
0.0 0.0 0.0 0.0 0.0 0.0 0.0 0.0
0.0 0.0 0.0 0.0 0.0 0.0 0.0 0.0
0.0 0.0 0.0 0.0 0.0 0.0 0.0 0.0
0.0 0.0 0.0 0.0 0.0 0.0 0.0 0.0
0.0 0.0 0.0 0.0 0.0 0.0 0.0 0.0
-0.005005886 0.022526486 -0.007508829 0.033163995 -0.020023543 -0.032538258 -0.00062573573 -0.014391921
-0.050058857 -0.07946844 -0.023152223 -0.060696367 -0.0012514715 -0.012514714 0.0012514715 0.012514714
0.02940958 -0.046304446 0.0087603 -0.056941953 0.07821697 0.002502943 0.059444893 0.006883093
00000000: 2b14 1a05 3f03 39f7 64e6 5cd7 0000 0000
00000010: 06e8 ece5 ee1f d916 0000 0000 0000 0000
00000020: 0000 0000 0000 0000 0000 0000 0000 0000
00000030: 0000 0000 0000 0000 0000 0000 0000 0000
00000040: 0000 0000 0000 0000 0000 0000 0000 0000
00000050: 0000 0000 0000 0000 0000 0000 0000 0000
00000060: f824 f435 e0cc ffe9 b081 db9f feec 0214
00000070: 2fb6 0ea5 7d04 5f0b
