7570cbe1-3f7e-4ed5-9fc6-a91b642f53e5/model.tflite (tflite, 2280 bytes, 1 tensors)

tfl.pseudo_qconst3 i1 [5, 16] scale=0.0012419261 zero_point=0
00000000: 0000 0000 0000 0000 0000 0000 0000 0000
00000010: 02f0 fe10 f015 f9e4 056f fb8d 017f 1787
00000020: ff06 02fa 04fa 0108 fcde 0024 fed9 f726
00000030: 00ff 0001 0000 00ff 0002 00fe 0002 01fd
00000040: 0000 0000 0000 0000 0000 0000 0000 0000
0.0 0.0 0.0 0.0 0.0 0.0 0.0 0.0
0.0 0.0 0.0 0.0 0.0 0.0 0.0 0.0
0.0024838522 -0.019870818 -0.0024838522 0.019870818 -0.019870818 0.026080448 -0.008693483 -0.03477393
0.0062096305 0.1378538 -0.0062096305 -0.1428215 0.0012419261 0.15772462 0.0285643 -0.15027305
-0.0012419261 0.0074515566 0.0024838522 -0.0074515566 0.0049677044 -0.0074515566 0.0012419261 0.009935409
-0.0049677044 -0.042225488 0.0 0.04470934 -0.0024838522 -0.048435118 -0.011177335 0.047193192
0.0 -0.0012419261 0.0 0.0012419261 0.0 0.0 0.0 -0.0012419261
0.0 0.0024838522 0.0 -0.0024838522 0.0 0.0024838522 0.0012419261 -0.0037257783
0.0 0.0 0.0 0.0 0.0 0.0 0.0 0.0
0.0 0.0 0.0 0.0 0.0 0.0 0.0 0.0
