73b89df2-e10b-4fd7-a7a2-32d38265b370/model.tflite (tflite, 2272 bytes, 1 tensors)

tfl.pseudo_qconst3 i1 [5, 16] scale=0.00093907036 zero_point=0
0.0 0.0 0.0 0.0 0.0 0.0 0.0 0.0
0.0 0.0 0.0 0.0 0.0 0.0 0.0 0.0
0.0 0.0 0.0 0.0 0.0 0.0 0.0 0.0
0.0 0.0 0.0 0.0 0.0 0.0 0.0 0.0
-0.0018781407 -0.106114954 -0.0056344224 -0.107054025 -0.0065734927 0.00093907036 0.0065734927 -0.00093907036
0.011268845 -0.04883166 0.0 -0.0507098 0.007512563 -0.0018781407 -0.0056344224 0.0
0.0 0.0 0.0 0.0 0.0 0.0 0.0 0.0
0.0 0.0 0.0 0.0 0.0 0.0 0.0 0.0
0.0037562815 -0.119261935 0.0046953517 -0.119261935 0.015964197 -0.0037562815 -0.015964197 0.0037562815
0.02253769 -0.0028172112 -0.018781407 -0.008451633 0.0046953517 0.02441583 -0.0056344224 0.034745604
00000000: 0000 0000 0000 0000 0000 0000 0000 0000
00000010: 0000 0000 0000 0000 0000 0000 0000 0000
00000020: fe8f fa8e f901 07ff 0ccc 00ca 08fe fa00
00000030: 0000 0000 0000 0000 0000 0000 0000 0000
00000040: 0481 0581 11fc ef04 18fd ecf7 051a fa25
