cd8300c7-f674-416b-a7c1-871750a6c6b0/model.tflite (tflite, 2240 bytes, 1 tensors)

tfl.pseudo_qconst3 i1 [5, 12] scale=0.0010510741 zero_point=0
0	0xf9	-0.007357519
1	0x01	0.0010510741
2	0x07	0.007357519
3	0xff	-0.0010510741
4	0x08	0.008408593
5	0x13	0.019970408
6	0xf7	-0.009459667
7	0x12	0.018919334
8	0x19	0.026276853
9	0x92	-0.115618154
10	0xe4	-0.029430076
11	0xa4	-0.09669882
12	0xf5	-0.011561816
13	0xfd	-0.0031532224
14	0x0b	0.011561816
15	0x03	0.0031532224
16	0x0c	0.0126128895
17	0x0a	0.010510741
18	0xfc	-0.0042042965
19	0x09	0.009459667
20	0x16	0.023123631
21	0x83	-0.13138427
22	0xdf	-0.034685448
23	0x98	-0.10931171
24	0x00	0.0
25	0x00	0.0
26	0x00	0.0
27	0x00	0.0
28	0x00	0.0
29	0x00	0.0
30	0x00	0.0
31	0x00	0.0
32	0x00	0.0
33	0x00	0.0
34	0x00	0.0
35	0x00	0.0
36	0x00	0.0
37	0xfd	-0.0031532224
38	0x00	0.0
39	0x03	0.0031532224
40	0x19	0.026276853
41	0x78	0.1261289
42	0xe3	-0.03048115
43	0x7f	0.13348642
44	0x30	0.050451558
45	0x9f	-0.10195419
46	0xcd	-0.05360478
47	0xc3	-0.064115524
48	0x00	0.0
49	0x00	0.0
50	0x00	0.0
51	0x00	0.0
52	0x00	0.0
53	0x00	0.0
54	0x00	0.0
55	0x00	0.0
56	0x00	0.0
57	0x00	0.0
58	0x00	0.0
59	0x00	0.0
