cd8300c7-f674-416b-a7c1-871750a6c6b0/model.tflite (tflite, 2248 bytes, 1 tensors)

tfl.pseudo_qconst3 i1 [5, 12] scale=0.0013732683 zero_point=0
0.0 0.0 0.0 0.0 0.0 0.0 0.0 0.0
0.0 0.0 0.0 0.0 -0.020599024 0.021972293 0.020599024 -0.021972293
-0.11535454 0.015105952 -0.0865159 0.013732683 0.07964956 0.10436839 0.09200898 0.10024859
0.0 0.0 0.0 0.0 0.0 0.0 0.0 0.0
0.0 0.0 0.0 0.0 -0.030211903 0.019225756 0.030211903 -0.019225756
0.009612878 -0.15380605 0.059050538 -0.14693971 -0.04943766 0.16341893 -0.02471883 0.17440508
0.0054930733 -0.004119805 -0.0054930733 0.004119805 -0.0013732683 0.012359415 -0.004119805 0.0109861465
0.004119805 -0.0068663415 0.0013732683 -0.00823961
00000000: 0000 0000 0000 0000 0000 0000 f110 0ff0
00000010: ac0b c10a 3a4c 4349 0000 0000 0000 0000
00000020: 0000 0000 ea0e 16f2 0790 2b95 dc77 ee7f
00000030: 04fd fc03 ff09 fd08 03fb 01fa
