8e4690bf-c057-4056-ba8d-ea6b0a2dc150/model.tflite (tflite, 2480 bytes, 2 tensors)

tfl.pseudo_qconst1 i1 [1, 15] scale=0.059953667 zero_point=0
00000000: 0d00 0000 00f9 8100 00fb 0000 0006 0f
0.77939767 0.0 0.0 0.0 0.0 -0.41967568 -7.6141157 0.0
0.0 -0.29976833 0.0 0.0 0.0 0.35972202 0.899305

tfl.pseudo_qconst3 i1 [15, 16] scale=0.0012665425 zero_point=0
00000000: f709 0c02 fc01 04ff 0008 0810 f6f3 09f7
00000010: 0000 0000 0000 0000 0000 0000 0000 0000
00000020: 0000 0000 0000 0000 0000 0000 0000 0000
00000030: 0000 0000 0000 0000 0000 0000 0000 0000
00000040: 0000 0000 0000 0000 0000 0000 0000 0000
00000050: 0000 0000 0000 0000 0000 0000 0000 0000
00000060: 71a9 98e9 2af8 d608 1aab bb81 777d b07a
00000070: 0000 0000 0000 0000 0000 0000 0000 0000
00000080: 0000 0000 0000 0000 0000 0000 0000 0000
00000090: 0000 0000 0000 0000 0000 0000 0000 0000
000000a0: 0000 0000 0000 0000 0000 0000 0000 0000
000000b0: 0001 0000 0000 0000 0000 0000 00ff 00ff
000000c0: 0000 0000 0000 0000 0000 0000 0000 0000
000000d0: 0000 0000 0000 0000 0000 0000 0000 0000
000000e0: 0000 0000 0000 0000 0000 0000 0000 0000
-0.011398883 0.011398883 0.01519851 0.002533085 -0.00506617 0.0012665425 0.00506617 -0.0012665425
0.0 0.01013234 0.01013234 0.02026468 -0.0126654245 -0.016465053 0.011398883 -0.011398883
0.0 0.0 0.0 0.0 0.0 0.0 0.0 0.0
0.0 0.0 0.0 0.0 0.0 0.0 0.0 0.0
0.0 0.0 0.0 0.0 0.0 0.0 0.0 0.0
0.0 0.0 0.0 0.0 0.0 0.0 0.0 0.0
0.0 0.0 0.0 0.0 0.0 0.0 0.0 0.0
0.0 0.0 0.0 0.0 0.0 0.0 0.0 0.0
0.0 0.0 0.0 0.0 0.0 0.0 0.0 0.0
0.0 0.0 0.0 0.0 0.0 0.0 0.0 0.0
0.0 0.0 0.0 0.0 0.0 0.0 0.0 0.0
0.0 0.0 0.0 0.0 0.0 0.0 0.0 0.0
0.1431193 -0.11018919 -0.13172042 -0.029130477 0.053194784 -0.01013234 -0.053194784 0.01013234
0.032930106 -0.107656114 -0.08739143 -0.1608509 0.15071855 0.1583178 -0.101323396 0.15451819
0.0 0.0 0.0 0.0 0.0 0.0 0.0 0.0
0.0 0.0 0.0 0.0 0.0 0.0 0.0 0.0
0.0 0.0 0.0 0.0 0.0 0.0 0.0 0.0
0.0 0.0 0.0 0.0 0.0 0.0 0.0 0.0
0.0 0.0 0.0 0.0 0.0 0.0 0.0 0.0
0.0 0.0 0.0 0.0 0.0 0.0 0.0 0.0
0.0 0.0 0.0 0.0 0.0 0.0 0.0 0.0
0.0 0.0 0.0 0.0 0.0 0.0 0.0 0.0
0.0 0.0012665425 0.0 0.0 0.0 0.0 0.0 0.0
0.0 0.0 0.0 0.0 0.0 -0.0012665425 0.0 -0.0012665425
0.0 0.0 0.0 0.0 0.0 0.0 0.0 0.0
0.0 0.0 0.0 0.0 0.0 0.0 0.0 0.0
0.0 0.0 0.0 0.0 0.0 0.0 0.0 0.0
0.0 0.0 0.0 0.0 0.0 0.0 0.0 0.0
0.0 0.0 0.0 0.0 0.0 0.0 0.0 0.0
0.0 0.0 0.0 0.0 0.0 0.0 0.0 0.0
