55fb8367-f702-4477-964f-80acab714679/model.tflite (tflite, 2248 bytes, 1 tensors)

tfl.pseudo_qconst3 i1 [5, 12] scale=0.0010263305 zero_point=0
0	0x00	0.0
1	0x00	0.0
2	0x00	0.0
3	0x00	0.0
4	0x00	0.0
5	0x00	0.0
6	0x00	0.0
7	0x00	0.0
8	0x00	0.0
9	0x00	0.0
10	0x00	0.0
11	0x00	0.0
12	0x00	0.0
13	0x00	0.0
14	0x00	0.0
15	0x00	0.0
16	0x00	0.0
17	0x00	0.0
18	0x00	0.0
19	0x00	0.0
20	0x00	0.0
21	0x00	0.0
22	0x00	0.0
23	0x00	0.0
24	0x45	0.07081681
25	0x30	0.049263865
26	0xbf	-0.066711485
27	0x31	0.050290197
28	0x16	0.022579271
29	0x04	0.004105322
30	0xe4	-0.028737254
31	0x01	0.0010263305
32	0xd8	-0.04105322
33	0x84	-0.12726498
34	0x2a	0.04310588
35	0x81	-0.13034397
36	0x00	0.0
37	0x00	0.0
38	0x00	0.0
39	0x00	0.0
40	0x00	0.0
41	0x00	0.0
42	0x00	0.0
43	0x00	0.0
44	0x00	0.0
45	0x00	0.0
46	0x00	0.0
47	0x00	0.0
48	0x00	0.0
49	0x00	0.0
50	0x00	0.0
51	0x00	0.0
52	0x00	0.0
53	0x00	0.0
54	0x00	0.0
55	0x00	0.0
56	0x00	0.0
57	0x00	0.0
58	0x00	0.0
59	0x00	0.0
