e790f420-8805-4c48-a030-67088a399c1b/model.tflite (tflite, 2480 bytes, 2 tensors)

tfl.pseudo_qconst1 i1 [1, 15] scale=0.08369858 zero_point=0
00000000: 1700 00fa 1f00 0f66 0100 7f00 ff00 fc
1.9250673 0.0 0.0 -0.5021915 2.594656 0.0 1.2554786 8.537255
0.08369858 0.0 10.62972 0.0 -0.08369858 0.0 -0.3347943

tfl.pseudo_qconst3 i1 [15, 16] scale=0.0008782563 zero_point=0
00000000: 0000 0000 0000 0000 0000 0000 0000 0000
00000010: 0000 0000 0000 0000 0000 0000 0000 0000
00000020: 0000 0000 0000 0000 0000 0000 0000 0000
00000030: 0000 0000 0000 0000 0000 0000 0000 0000
00000040: e90d d810 06fc fa04 f21a e417 18f2 13ea
00000050: 0000 0000 0000 0000 0000 0000 0000 0000
00000060: 0000 0000 0000 0000 0000 0000 0000 0000
00000070: bc40 8151 08ff f801 e959 ca4e 40d3 47b9
00000080: 0000 0000 0000 0000 0000 0000 0000 0000
00000090: 0000 0000 0000 0000 0000 0000 0000 0000
000000a0: 684e 7b2e 04fc fc04 1948 1438 b001 af00
000000b0: 0000 0000 0000 0000 0000 0000 0000 0000
000000c0: 0000 0000 0000 0000 0000 0000 0000 0000
000000d0: 0000 0000 01ff 0000 0000 0000 0100 0000
000000e0: 0000 0000 0000 0000 0000 0000 0000 0000
0.0 0.0 0.0 0.0 0.0 0.0 0.0 0.0
0.0 0.0 0.0 0.0 0.0 0.0 0.0 0.0
0.0 0.0 0.0 0.0 0.0 0.0 0.0 0.0
0.0 0.0 0.0 0.0 0.0 0.0 0.0 0.0
0.0 0.0 0.0 0.0 0.0 0.0 0.0 0.0
0.0 0.0 0.0 0.0 0.0 0.0 0.0 0.0
0.0 0.0 0.0 0.0 0.0 0.0 0.0 0.0
0.0 0.0 0.0 0.0 0.0 0.0 0.0 0.0
-0.020199895 0.011417331 -0.03513025 0.0140521005 0.0052695377 -0.0035130251 -0.0052695377 0.0035130251
-0.012295588 0.022834662 -0.024591176 0.020199895 0.02107815 -0.012295588 0.01668687 -0.01932164
0.0 0.0 0.0 0.0 0.0 0.0 0.0 0.0
0.0 0.0 0.0 0.0 0.0 0.0 0.0 0.0
0.0 0.0 0.0 0.0 0.0 0.0 0.0 0.0
0.0 0.0 0.0 0.0 0.0 0.0 0.0 0.0
-0.059721425 0.056208402 -0.111538544 0.07113876 0.0070260502 -0.0008782563 -0.0070260502 0.0008782563
-0.020199895 0.07816481 -0.04742584 0.06850399 0.056208402 -0.039521534 0.062356196 -0.062356196
0.0 0.0 0.0 0.0 0.0 0.0 0.0 0.0
0.0 0.0 0.0 0.0 0.0 0.0 0.0 0.0
0.0 0.0 0.0 0.0 0.0 0.0 0.0 0.0
0.0 0.0 0.0 0.0 0.0 0.0 0.0 0.0
0.09133865 0.06850399 0.10802552 0.04039979 0.0035130251 -0.0035130251 -0.0035130251 0.0035130251
0.021956407 0.06323445 0.017565126 0.04918235 -0.0702605 0.0008782563 -0.07113876 0.0
0.0 0.0 0.0 0.0 0.0 0.0 0.0 0.0
0.0 0.0 0.0 0.0 0.0 0.0 0.0 0.0
0.0 0.0 0.0 0.0 0.0 0.0 0.0 0.0
0.0 0.0 0.0 0.0 0.0 0.0 0.0 0.0
0.0 0.0 0.0 0.0 0.0008782563 -0.0008782563 0.0 0.0
0.0 0.0 0.0 0.0 0.0008782563 0.0 0.0 0.0
0.0 0.0 0.0 0.0 0.0 0.0 0.0 0.0
0.0 0.0 0.0 0.0 0.0 0.0 0.0 0.0
