e76d0fcf-5af1-4e09-8d41-2c9278232aaa/model.tflite (tflite, 2608 bytes, 2 tensors)

tfl.pseudo_qconst1 i1 [1, 10] scale=0.17113832 zero_point=0
0	0x5d	15.915863
1	0x00	0.0
2	0xe1	-5.305288
3	0xee	-3.0804896
4	0x7a	20.878874
5	0x71	19.33863
6	0xfe	-0.34227663
7	0xfe	-0.34227663
8	0x7f	21.734566
9	0xf5	-1.8825215

tfl.pseudo_qconst3 i1 [10, 16] scale=0.0011031732 zero_point=0
0	0x97	-0.11583319
1	0x55	0.09376973
2	0x55	0.09376973
3	0x46	0.077222124
4	0xc9	-0.06067453
5	0xff	-0.0011031732
6	0x37	0.06067453
7	0x01	0.0011031732
8	0x9d	-0.10921415
9	0xef	-0.018753946
10	0x5d	0.10259511
11	0xf0	-0.017650772
12	0xab	-0.09376973
13	0xa5	-0.100388765
14	0x49	0.08053165
15	0xa8	-0.09707925
16	0x00	0.0
17	0x00	0.0
18	0x00	0.0
19	0x00	0.0
20	0x00	0.0
21	0x00	0.0
22	0x00	0.0
23	0x00	0.0
24	0x00	0.0
25	0x00	0.0
26	0x00	0.0
27	0x00	0.0
28	0x00	0.0
29	0x00	0.0
30	0x00	0.0
31	0x00	0.0
32	0x28	0.044126928
33	0xe0	-0.035301544
34	0xe0	-0.035301544
35	0xe5	-0.029785678
36	0x16	0.024269812
37	0xfc	-0.004412693
38	0xea	-0.024269812
39	0x04	0.004412693
40	0x27	0.043023758
41	0xfa	-0.0066190395
42	0xdd	-0.038611062
43	0xfd	-0.0033095197
44	0x21	0.036404718
45	0x15	0.023166638
46	0xe0	-0.035301544
47	0x18	0.026476158
48	0x1b	0.029785678
49	0xe9	-0.025372984
50	0xeb	-0.023166638
51	0xec	-0.022063464
52	0x0b	0.012134906
53	0xfc	-0.004412693
54	0xf5	-0.012134906
55	0x04	0.004412693
56	0x19	0.027579332
57	0xfa	-0.0066190395
58	0xe7	-0.027579332
59	0xfb	-0.005515866
60	0x18	0.026476158
61	0x0a	0.011031732
62	0xec	-0.022063464
63	0x0e	0.015444426
64	0x82	-0.13899983
65	0x74	0.1279681
66	0x54	0.09266655
67	0x60	0.10590463
68	0xcc	-0.057365008
69	0x00	0.0
70	0x34	0.057365008
71	0x00	0.0
72	0x9d	-0.10921415
73	0xea	-0.024269812
74	0x62	0.10811098
75	0xed	-0.020960292
76	0xbd	-0.073912606
77	0x89	-0.13127762
78	0x4d	0.08494434
79	0x8e	-0.12576175
80	0x83	-0.13789666
81	0x67	0.113626845
82	0x5b	0.100388765
83	0x58	0.09707925
84	0xbf	-0.07170626
85	0xfc	-0.004412693
86	0x41	0.07170626
87	0x04	0.004412693
88	0x91	-0.12245223
89	0xeb	-0.023166638
90	0x5d	0.10259511
91	0xf6	-0.011031732
92	0xa6	-0.099285595
93	0x91	-0.12245223
94	0x44	0.07501578
95	0x9a	-0.11252367
96	0x00	0.0
97	0x00	0.0
98	0x00	0.0
99	0x00	0.0
100	0x00	0.0
101	0x00	0.0
102	0x00	0.0
103	0x00	0.0
104	0x00	0.0
105	0x00	0.0
106	0x00	0.0
107	0x00	0.0
108	0x00	0.0
109	0x00	0.0
110	0x00	0.0
111	0x00	0.0
112	0x00	0.0
113	0x00	0.0
114	0x00	0.0
115	0x00	0.0
116	0x00	0.0
117	0x00	0.0
118	0x00	0.0
119	0x00	0.0
120	0x00	0.0
121	0x00	0.0
122	0x00	0.0
123	0x00	0.0
124	0x00	0.0
125	0x00	0.0
126	0x00	0.0
127	0x00	0.0
128	0x81	-0.140103
129	0x75	0.12907127
130	0x65	0.1114205
131	0x61	0.1070078
132	0xc1	-0.06949992
133	0xfe	-0.0022063465
134	0x3f	0.06949992
135	0x02	0.0022063465
136	0x9f	-0.1070078
137	0xe6	-0.028682504
138	0x65	0.1114205
139	0xe9	-0.025372984
140	0xb5	-0.08273799
141	0x8a	-0.13017444
142	0x42	0.072809435
143	0x90	-0.12355541
144	0x11	0.018753946
145	0xf8	-0.008825386
146	0xf6	-0.011031732
147	0xfa	-0.0066190395
148	0x08	0.008825386
149	0xff	-0.0011031732
150	0xf8	-0.008825386
151	0x01	0.0011031732
152	0x0b	0.012134906
153	0xf5	-0.012134906
154	0xf0	-0.017650772
155	0xf5	-0.012134906
156	0x0f	0.016547598
157	0xfb	-0.005515866
158	0xf5	-0.012134906
159	0xff	-0.0011031732
