4a7c1fa7-662f-438e-be8e-6ade50ce62e5/model.tflite (tflite, 2616 bytes, 2 tensors)

tfl.pseudo_qconst1 i1 [1, 10] scale=0.30492648 zero_point=0
00000000: fa01 fb7e 7ff1 f36d f87e
-1.8295588 0.30492648 -1.5246325 38.42074 38.725662 -4.5738974 -3.9640443 33.236988
-2.4394119 38.42074

tfl.pseudo_qconst3 i1 [10, 16] scale=0.0015688619 zero_point=0
00000000: fdfb fbfc 0100 ff00 0203 0205 0208 010a
00000010: 0000 0000 0000 0000 0000 0000 0000 0000
00000020: fdfb fbfc 0100 ff00 0303 0204 0307 0109
00000030: e536 1827 ee04 12fc f8bf 07ce 038b 0d81
00000040: eb3e 1729 ef06 11fa facb 02d1 ff90 0386
00000050: fff5 f9f8 0200 fe00 0409 ff08 0010 fe13
00000060: fef8 faf9 0100 ff00 0307 0006 020e fe10
00000070: ec3a 1b26 ef06 11fa f6ce 04d5 ff99 0891
00000080: fdf9 fbfb 0100 ff00 0305 0205 020b 000d
00000090: e741 1631 ee06 12fa f5c8 03d4 0792 0f89
-0.004706586 -0.007844309 -0.007844309 -0.0062754476 0.0015688619 0.0 -0.0015688619 0.0
0.0031377238 0.004706586 0.0031377238 0.007844309 0.0031377238 0.012550895 0.0015688619 0.015688619
0.0 0.0 0.0 0.0 0.0 0.0 0.0 0.0
0.0 0.0 0.0 0.0 0.0 0.0 0.0 0.0
-0.004706586 -0.007844309 -0.007844309 -0.0062754476 0.0015688619 0.0 -0.0015688619 0.0
0.004706586 0.004706586 0.0031377238 0.0062754476 0.004706586 0.010982033 0.0015688619 0.014119757
-0.04235927 0.08471854 0.037652686 0.061185613 -0.028239515 0.0062754476 0.028239515 -0.0062754476
-0.012550895 -0.10197602 0.010982033 -0.078443095 0.004706586 -0.18355684 0.020395204 -0.19924545
-0.0329461 0.09726944 0.036083825 0.064323336 -0.026670652 0.009413172 0.026670652 -0.009413172
-0.009413172 -0.08314968 0.0031377238 -0.07373651 -0.0015688619 -0.17571253 0.004706586 -0.19140115
-0.0015688619 -0.01725748 -0.010982033 -0.012550895 0.0031377238 0.0 -0.0031377238 0.0
0.0062754476 0.014119757 -0.0015688619 0.012550895 0.0 0.02510179 -0.0031377238 0.029808376
-0.0031377238 -0.012550895 -0.009413172 -0.010982033 0.0015688619 0.0 -0.0015688619 0.0
0.004706586 0.010982033 0.0 0.009413172 0.0031377238 0.021964066 -0.0031377238 0.02510179
-0.031377237 0.09099399 0.04235927 0.059616752 -0.026670652 0.009413172 0.026670652 -0.009413172
-0.015688619 -0.078443095 0.0062754476 -0.06746106 -0.0015688619 -0.16159278 0.012550895 -0.17414367
-0.004706586 -0.010982033 -0.007844309 -0.007844309 0.0015688619 0.0 -0.0015688619 0.0
0.004706586 0.007844309 0.0031377238 0.007844309 0.0031377238 0.01725748 0.0 0.020395204
-0.039221548 0.10197602 0.03451496 0.076874234 -0.028239515 0.009413172 0.028239515 -0.009413172
-0.01725748 -0.08785626 0.004706586 -0.06902992 0.010982033 -0.1725748 0.023532929 -0.18669456
