c383dd78-77cd-4a2e-8bf3-f497cbb8c91e/model.tflite (tflite, 2272 bytes, 1 tensors)

tfl.pseudo_qconst3 i1 [5, 16] scale=0.0015838112 zero_point=0
000000 00 00 00 00 00 00 00 00 00 00 00 00 00 00 00 00
       0.0 0.0 0.0 0.0 0.0 0.0 0.0 0.0 0.0 0.0 0.0 0.0 0.0 0.0 0.0 0.0
000010 00 00 00 00 00 00 00 00 00 00 00 00 00 00 00 00
       0.0 0.0 0.0 0.0 0.0 0.0 0.0 0.0 0.0 0.0 0.0 0.0 0.0 0.0 0.0 0.0
000020 ca 07 ef 25 03 0f fd f1 59 2f 30 32 81 fe ef 3d
       -0.08552581 0.011086679 -0.02692479 0.058601014 0.0047514336 0.023757169 -0.0047514336 -0.023757169 0.1409592 0.07443913 0.07602294 0.07919056 -0.20114402 -0.0031676225 -0.02692479 0.09661248
000030 00 00 00 00 00 00 00 00 00 00 00 00 00 00 00 00
       0.0 0.0 0.0 0.0 0.0 0.0 0.0 0.0 0.0 0.0 0.0 0.0 0.0 0.0 0.0 0.0
000040 cc c7 af 06 09 12 f7 ee 1e 92 14 0b ea a1 d4 3b
       -0.08235818 -0.09027724 -0.12828872 0.009502867 0.014254301 0.028508602 -0.014254301 -0.028508602 0.047514338 -0.17421924 0.031676225 0.017421924 -0.034843847 -0.15046206 -0.069687694 0.09344486
