c7cde69d-0e92-4aaa-a13d-2af308efea45/model.tflite (tflite, 2608 bytes, 2 tensors)

tfl.pseudo_qconst1 i1 [1, 10] scale=0.25624776 zero_point=0
0	0x2e	11.787397
1	0xd0	-12.299892
2	0xec	-5.124955
3	0xfa	-1.5374866
4	0x00	0.0
5	0x94	-27.674759
6	0x00	0.0
7	0x9f	-24.856033
8	0x7f	32.543465
9	0x6f	28.4435

tfl.pseudo_qconst3 i1 [10, 16] scale=0.0027439592 zero_point=0
0	0x04	0.010975837
1	0x37	0.15091775
2	0x1f	0.085062735
3	0x28	0.10975837
4	0xfa	-0.016463755
5	0x00	0.0
6	0x06	0.016463755
7	0x00	0.0
8	0xfd	-0.008231877
9	0xe8	-0.06585502
10	0x08	0.021951674
11	0xf6	-0.027439592
12	0x13	0.052135225
13	0xd3	-0.12347817
14	0xf4	-0.03292751
15	0xc1	-0.17286943
16	0xff	-0.0027439592
17	0xe6	-0.07134294
18	0x01	0.0027439592
19	0xdf	-0.09055065
20	0xfb	-0.013719796
21	0x02	0.0054879184
22	0x05	0.013719796
23	0xfe	-0.0054879184
24	0x0b	0.030183552
25	0x45	0.18933319
26	0xf9	-0.019207714
27	0xf1	-0.041159388
28	0xf6	-0.027439592
29	0x55	0.23323654
30	0x07	0.019207714
31	0xe8	-0.06585502
32	0x01	0.0027439592
33	0xec	-0.054879185
34	0xfc	-0.010975837
35	0xf3	-0.03567147
36	0x02	0.0054879184
37	0xff	-0.0027439592
38	0xfe	-0.0054879184
39	0x01	0.0027439592
40	0x0b	0.030183552
41	0x19	0.06859898
42	0xfa	-0.016463755
43	0x05	0.013719796
44	0xf3	-0.03567147
45	0x0a	0.027439592
46	0xfb	-0.013719796
47	0x18	0.06585502
48	0x03	0.008231877
49	0xfe	-0.0054879184
50	0xff	-0.0027439592
51	0xfe	-0.0054879184
52	0x01	0.0027439592
53	0x00	0.0
54	0xff	-0.0027439592
55	0x00	0.0
56	0x06	0.016463755
57	0x05	0.013719796
58	0xfc	-0.010975837
59	0xfe	-0.0054879184
60	0x01	0.0027439592
61	0x03	0.008231877
62	0xfc	-0.010975837
63	0x06	0.016463755
64	0x00	0.0
65	0x00	0.0
66	0x00	0.0
67	0x00	0.0
68	0x00	0.0
69	0x00	0.0
70	0x00	0.0
71	0x00	0.0
72	0x00	0.0
73	0x00	0.0
74	0x00	0.0
75	0x00	0.0
76	0x00	0.0
77	0x00	0.0
78	0x00	0.0
79	0x00	0.0
80	0x2c	0.12073421
81	0xdb	-0.10152649
82	0xc7	-0.15640567
83	0xeb	-0.057623144
84	0x12	0.049391266
85	0xff	-0.0027439592
86	0xee	-0.049391266
87	0x01	0.0027439592
88	0x18	0.06585502
89	0x22	0.09329461
90	0xd7	-0.11250233
91	0xff	-0.0027439592
92	0x41	0.17835735
93	0xff	-0.0027439592
94	0xd2	-0.12622212
95	0x26	0.10427045
96	0x00	0.0
97	0x00	0.0
98	0x00	0.0
99	0x00	0.0
100	0x00	0.0
101	0x00	0.0
102	0x00	0.0
103	0x00	0.0
104	0x00	0.0
105	0x00	0.0
106	0x00	0.0
107	0x00	0.0
108	0x00	0.0
109	0x00	0.0
110	0x00	0.0
111	0x00	0.0
112	0x29	0.11250233
113	0xdd	-0.09603857
114	0xcf	-0.134454
115	0xeb	-0.057623144
116	0x0c	0.03292751
117	0x01	0.0027439592
118	0xf4	-0.03292751
119	0xff	-0.0027439592
120	0x14	0.054879185
121	0x1e	0.082318775
122	0xd5	-0.11799025
123	0xf8	-0.021951674
124	0x3d	0.16738151
125	0xfc	-0.010975837
126	0xcc	-0.14268588
127	0x1a	0.07134294
128	0xa5	-0.2497003
129	0x12	0.049391266
130	0x9d	-0.27165195
131	0x0c	0.03292751
132	0x00	0.0
133	0xfd	-0.008231877
134	0x00	0.0
135	0x03	0.008231877
136	0x8b	-0.32104322
137	0xa0	-0.26342008
138	0xb9	-0.1948211
139	0xe1	-0.085062735
140	0x14	0.054879185
141	0x1c	0.07683086
142	0x0c	0.03292751
143	0xf9	-0.019207714
144	0x60	0.26342008
145	0x24	0.09878253
146	0x7f	0.34848282
147	0x03	0.008231877
148	0xfc	-0.010975837
149	0x06	0.016463755
150	0x04	0.010975837
151	0xfa	-0.016463755
152	0x33	0.13994192
153	0xd1	-0.12896608
154	0x55	0.23323654
155	0xe8	-0.06585502
156	0x0d	0.03567147
157	0xf3	-0.03567147
158	0xf1	-0.041159388
159	0xe8	-0.06585502
