f388d03a-4ea8-4cfd-a7c6-bec0a7762efa/model.tflite (tflite, 2248 bytes, 1 tensors)

tfl.pseudo_qconst3 i1 [5, 12] scale=0.0011639153 zero_point=0
0	0x00	0.0
1	0x00	0.0
2	0x00	0.0
3	0x00	0.0
4	0x00	0.0
5	0x00	0.0
6	0x00	0.0
7	0x00	0.0
8	0x00	0.0
9	0x00	0.0
10	0x00	0.0
11	0x00	0.0
12	0x06	0.0069834916
13	0x00	0.0
14	0xfa	-0.0069834916
15	0x00	0.0
16	0xff	-0.0011639153
17	0x83	-0.14548941
18	0x0f	0.01745873
19	0x21	0.038409203
20	0x05	0.0058195763
21	0xd4	-0.051212274
22	0xfb	-0.0058195763
23	0x81	-0.14781724
24	0x00	0.0
25	0x00	0.0
26	0x00	0.0
27	0x00	0.0
28	0x00	0.0
29	0x00	0.0
30	0x00	0.0
31	0x00	0.0
32	0x00	0.0
33	0x00	0.0
34	0x00	0.0
35	0x00	0.0
36	0x0c	0.013966983
37	0x05	0.0058195763
38	0xf4	-0.013966983
39	0xfb	-0.0058195763
40	0xf8	-0.009311322
41	0x1e	0.03491746
42	0x03	0.0034917458
43	0xa0	-0.111735865
44	0xfd	-0.0034917458
45	0x92	-0.12803067
46	0x03	0.0034917458
47	0xec	-0.023278305
48	0x00	0.0
49	0x00	0.0
50	0x00	0.0
51	0x00	0.0
52	0x00	0.0
53	0x00	0.0
54	0x00	0.0
55	0x00	0.0
56	0x00	0.0
57	0x00	0.0
58	0x00	0.0
59	0x00	0.0
